…
2022-11-19 23:09:15.330338: I tensorflow/core/kernels/data/shuffle_dataset_op.cc:390] Filling up shuffle buffer (this may take a while): 143 of 1000
2022-11-19 23:09:25.219958: I tensorflow/core/kernels/data/shuffle_dataset_op.cc:390] Filling up shuffle buffer (this may take a while): 160 of 1000
2022-11-19 23:09:33.292987: I tensorflow/core/kernels/data/shuffle_dataset_op.cc:415] Shuffle buffer filled.
Model: "sequential"
_________________________________________________________________
 Layer (type)                Output Shape              Param #   
=================================================================
 rescaling_1 (Rescaling)     (None, 1600, 256, 3)      0         
                                                                 
 conv2d (Conv2D)             (None, 1600, 256, 16)     448       
                                                                 
 max_pooling2d (MaxPooling2D  (None, 800, 128, 16)     0         
 )                                                               
                                                                 
 conv2d_1 (Conv2D)           (None, 800, 128, 32)      4640      
                                                                 
 max_pooling2d_1 (MaxPooling  (None, 400, 64, 32)      0         
 2D)                                                             
                                                                 
 conv2d_2 (Conv2D)           (None, 400, 64, 64)       18496     
                                                                 
 max_pooling2d_2 (MaxPooling  (None, 200, 32, 64)      0         
 2D)                                                             
                                                                 
 flatten (Flatten)           (None, 409600)            0         
                                                                 
 dense (Dense)               (None, 128)               52428928  
                                                                 
 dense_1 (Dense)             (None, 2)                 258       
                                                                 
=================================================================
Total params: 52,452,770
Trainable params: 52,452,770
Non-trainable params: 0
_________________________________________________________________
None
Epoch 1/10
179/179 [==============================] - 2416s 13s/step - loss: 0.6986 - accuracy: 0.7183 - val_loss: 0.5732 - val_accuracy: 0.6527
…
WARNING:tensorflow:Using a while_loop for converting Bitcast cause there is no registered converter for this op.
WARNING:tensorflow:Using a while_loop for converting StatelessRandomUniformV2 cause there is no registered converter for this op.
WARNING:tensorflow:Using a while_loop for converting ImageProjectiveTransformV3 cause there is no registered converter for this op.
Model: "sequential_2"
_________________________________________________________________
 Layer (type)                Output Shape              Param #   
=================================================================
 sequential_1 (Sequential)   (None, 1600, 256, 3)      0         
                                                                 
 rescaling_2 (Rescaling)     (None, 1600, 256, 3)      0         
                                                                 
 conv2d_3 (Conv2D)           (None, 1600, 256, 16)     448       
                                                                 
 max_pooling2d_3 (MaxPooling  (None, 800, 128, 16)     0         
 2D)                                                             
                                                                 
 conv2d_4 (Conv2D)           (None, 800, 128, 32)      4640      
                                                                 
 max_pooling2d_4 (MaxPooling  (None, 400, 64, 32)      0         
 2D)                                                             
                                                                 
 conv2d_5 (Conv2D)           (None, 400, 64, 64)       18496     
                                                                 
 max_pooling2d_5 (MaxPooling  (None, 200, 32, 64)      0         
 2D)                                                             
                                                                 
 dropout (Dropout)           (None, 200, 32, 64)       0         
                                                                 
 flatten_1 (Flatten)         (None, 409600)            0         
                                                                 
 dense_2 (Dense)             (None, 128)               52428928  
                                                                 
 outputs (Dense)             (None, 2)                 258       
                                                                 
=================================================================
Total params: 52,452,770
Trainable params: 52,452,770
Non-trainable params: 0
_________________________________________________________________
1/1 [==============================] - 0s 292ms/step
Traceback (most recent call last):
  File "/Users/alexchristopher/Desktop/340W Project/Classification.py", line 226, in train_model
…
